model.pth (torch, 378536 bytes, 8 tensors)

conv1.weight f4 [32, 1, 3, 3]
0	0x3e05d484	0.1306935
1	0xbe170770	-0.14748931
2	0x3e496878	0.19668758
3	0x3d48cea4	0.049025193
4	0x3e8d75d8	0.2762897
5	0x3dfb1cb5	0.12261335
6	0x3e845189	0.25843456
7	0x3eb156ca	0.34636527
8	0x3e9ce368	0.30642247
9	0xbe74215e	-0.23840854
10	0xbee012ec	-0.43764436
11	0xbeae820f	-0.34083602
12	0x3e0f5329	0.13996567
13	0xbd8b690e	-0.06807147
14	0xbecb82fb	-0.39748368
15	0x3ecb9b3e	0.39766878
16	0x3e391269	0.18073429
17	0xbed09cec	-0.40744722
18	0xbdb3a454	-0.087715775
19	0x3e7366de	0.2376971
20	0xbd942fa6	-0.07235651
21	0xbce48543	-0.027895575
22	0x3e616769	0.22012104
23	0xbdf6716a	-0.12033351
24	0x3efecc22	0.49765116
25	0x3ea8d5b5	0.32975546
26	0x3ef58230	0.47950888
27	0xbedf1fd5	-0.43578973
28	0xbeeff7bd	-0.46868697
29	0x3dc850d4	0.09781042
30	0xbea29821	-0.3175669
31	0x3e43bee7	0.19115792
32	0xbe91861b	-0.28422627
33	0x3e4b4465	0.19850309
34	0x3e9dd04d	0.30822983
35	0x3e03fd8a	0.12889686
36	0xbe711e41	-0.23546697
37	0x3ec6b0af	0.38806674
38	0x3da163e1	0.078803785
39	0xbe298d6e	-0.16557857
40	0x3d98bd51	0.07457984
41	0x3ecb65ca	0.39726096
42	0x3e7e2fd5	0.24822934
43	0x3eedeca7	0.46469614
44	0x3e61bd21	0.22044803
45	0xbe26db35	-0.16294558
46	0xbeae1585	-0.34000793
47	0xbe2b0184	-0.16699797
48	0x3d1924d6	0.037388645
49	0xbeee1a74	-0.46504557
50	0x3d86e768	0.06587106
51	0xbee190f0	-0.4405589
52	0xbe2b016c	-0.16699761
53	0x3e7823b8	0.24232376
54	0x3dc4a52d	0.09601817
55	0x3e05a642	0.13051704
56	0xbeaf8c84	-0.34286892
57	0xbe3ee7ab	-0.18643062
58	0xbd395ac1	-0.045252565
59	0xbe80b8b4	-0.25140917
60	0xbdebb896	-0.11509816
61	0xbe17abe9	-0.14811672
62	0xbec6815e	-0.38770574
63	0x3ef1d086	0.47229403
64	0x3d7ff008	0.06248477
65	0x3e38aede	0.18035457
66	0xbe4093b1	-0.1880634
67	0x3ed9aa24	0.4251262
68	0xbdbba9d5	-0.09163252
69	0xbe07eb98	-0.13273466
70	0xbef262ba	-0.47340947
71	0xbecfb6b5	-0.40569082
72	0xbcad7de1	-0.021178188
73	0x3e30631a	0.17225304
74	0xba7bcc8e	-0.0009605371
75	0x3e258710	0.16164804
76	0x3e90913f	0.28235814
77	0xbd811b52	-0.06304039
78	0xbe51d959	-0.20493068
79	0x3ee0cc39	0.4390581
80	0x3f0d7384	0.5525439
81	0x3ecd464f	0.40092704
82	0x3e580f21	0.21099521
83	0xbe49381f	-0.19650315
84	0x3edc5d49	0.4303992
85	0x3c766895	0.015039583
86	0x3ef67af2	0.48140675
87	0xbc726155	-0.014793714
88	0x3ef5ea30	0.48030233
89	0x3f0e5f07	0.5561375
90	0xbe10f8a0	-0.14157343
91	0xbe05467a	-0.13015166
92	0xbec56e62	-0.38560778
93	0x3f07415d	0.5283411
94	0x3e47d42a	0.19514528
95	0xbe19fa98	-0.15037
96	0x3ecce51c	0.40018547
97	0x3ed2b90f	0.41156814
98	0x3e1f1b59	0.15537776
99	0xbe67607b	-0.22595398
100	0xbe83a63d	-0.25712767
101	0xbe856485	-0.26053253
102	0x3dd2bead	0.10290275
103	0x3dec13b9	0.11527199
104	0xbe117478	-0.14204586
105	0x3ea8955f	0.3292646
106	0xbc997767	-0.018733693
107	0x3f039fe4	0.5141585
108	0x3ee31683	0.44353113
109	0x3eb4a1d7	0.35279724
110	0x3b5115a1	0.003190376
111	0x3ec7b8ab	0.39008078
112	0x3ef61ed1	0.48070386
113	0x3eb9ed4e	0.36313862
114	0x3cd509ce	0.026005652
115	0xbddecc8e	-0.108788595
116	0x3e0b939f	0.13630532
117	0x3e56c07f	0.20971869
118	0x3ec6c5e6	0.3882286
119	0xbe174f3c	-0.1477632
120	0x3ed9f4af	0.4256949
121	0xbe170278	-0.14747036
122	0xbdc9ae6f	-0.09847724
123	0xbe510d24	-0.20415169
124	0xbeeb73b7	-0.4598672
125	0xbec1cd22	-0.37851816
126	0xbd87ea9c	-0.06636545
127	0x3e7417ca	0.238372
128	0x3ee6e641	0.45097545
129	0x3e1fa8e0	0.15591764
130	0x3eb4f6e5	0.35344616
131	0x3db1d042	0.086823
132	0xbe34c4f8	-0.17653263
133	0x3e9d0c79	0.30673578
134	0x3f0e21ad	0.55520135
135	0x3eac1eec	0.33617342
136	0xbdc384a6	-0.09546785
137	0x3ef059fc	0.46943653
138	0x3df8bb54	0.12145105
139	0x3eb5ce0d	0.35508767
140	0x3e7708c5	0.24124439
141	0xbe656c90	-0.22404695
142	0xbe1a39df	-0.15061139
143	0x3e4cb76e	0.19991848
144	0x3d8b775c	0.06809875
145	0xbd5111fe	-0.05104255
146	0xbb983b56	-0.0046457453
147	0xbec3c269	-0.3823426
148	0xbee6ddf0	-0.450912
149	0xbd3c3e26	-0.045957707
150	0xbed7586e	-0.42059654
151	0x3e3e79ec	0.18601197
152	0xbe0913c7	-0.1338645
153	0xbe9e722f	-0.3094649
154	0xbda7e83d	-0.08198593
155	0xbe7738cd	-0.24142762
156	0x3da6ebde	0.08150457
157	0xbefc1ddf	-0.4924154
158	0xbef66ac2	-0.48128325
159	0xbe364707	-0.17800532
160	0xbe043178	-0.12909496
161	0x3dcc8f13	0.09988227
162	0xbdf3eb49	-0.119101115
163	0x3e3ef659	0.18648662
164	0xbeae9787	-0.3409998
165	0x3ec43a71	0.38325837
166	0x398e0de1	0.0002709469
167	0xbe2a69a8	-0.16641867
168	0x3f00e28a	0.5034567
169	0x3e869020	0.26281834
170	0x3ef00000	0.46875
171	0x3e531242	0.20612434
172	0x3c9b73af	0.01897606
173	0x3e967c82	0.29391867
174	0x3d1a2a10	0.03763777
175	0x3ea53cf2	0.3227306
176	0x3dce9453	0.10086884
177	0x3ee77cc2	0.4521237
178	0x3ecd235e	0.40066046
179	0x3ed80ec5	0.42198768
180	0x3e003d77	0.12523447
181	0x3e84e0ed	0.25952855
182	0xbeeabf26	-0.4584896
183	0x3ed4cdb9	0.41563204
184	0xbde01717	-0.10941904
185	0xbeeac043	-0.4584981
186	0x3dd279ee	0.102771625
187	0x3d994999	0.07484741
188	0xbe1629ac	-0.14664334
189	0x3e1a6015	0.15075715
190	0x3ce86ac1	0.028371217
191	0xbe9a2030	-0.30102682
192	0xbca90725	-0.02063329
193	0x3eb5d7e0	0.35516262
194	0x3e24db68	0.16099322
195	0x3eda8bb6	0.42684716
196	0x3ec56e73	0.3856083
197	0x3ec3fd5e	0.3827924
198	0x3ed25127	0.4107754
199	0xbd9520cc	-0.07281646
200	0x3d97390c	0.07383928
201	0x3e512679	0.20424832
202	0xbc77a07f	-0.015113949
203	0x3e900f29	0.28136566
204	0xbec6419c	-0.3872193
205	0xbeda6cb5	-0.42661062
206	0xbea12d45	-0.3147985
207	0x3e6913f5	0.22761519
208	0x3f03752a	0.51350653
209	0x3ec758a8	0.38934827
210	0x3ed78d6e	0.4210009
211	0x3e3d88ea	0.1850926
212	0x3e51688c	0.20450038
213	0x3aa75adc	0.0012768167
214	0x3e897971	0.26850465
215	0x3c5a267b	0.0133148385
216	0x3c24cd62	0.010058733
217	0x3dacac84	0.08431342
218	0x3eed8b8a	0.46395522
219	0x3ec83956	0.39106244
220	0xbcc45b91	-0.023969444
221	0x3e898fe3	0.2686759
222	0x3bb8820b	0.0056307367
223	0xbe9f38e3	-0.3109809
224	0x3d99a8ef	0.07502925
225	0x3e26191b	0.16220514
226	0x3e9972c9	0.29970387
227	0xbd857932	-0.06517257
228	0x3e2b9039	0.16754235
229	0x3e92dacf	0.28682563
230	0x3f078a56	0.5294546
231	0x3ead6626	0.33866996
232	0x3df50b32	0.11965026
233	0x3e9905b6	0.2988717
234	0x3e50d61a	0.20394173
235	0x3e580103	0.21094136
236	0x3d573d3f	0.052548643
237	0x3e039e17	0.12853275
238	0x3e8d929d	0.2765092
239	0xbe1f99f7	-0.15586077
240	0x3ec28b22	0.37996775
241	0x3e9b1ce0	0.30295467
242	0x3eded06e	0.43518394
243	0xbd38f23d	-0.04515289
244	0xbe81d5bf	-0.25358388
245	0xbe4a0f51	-0.19732405
246	0xbdc63e28	-0.09679824
247	0x3df22be6	0.11824779
248	0xbeb760f4	-0.35816157
249	0xbe7725ee	-0.24135563
250	0xbe555698	-0.20833814
251	0xbe7c8512	-0.24660137
252	0xbea45ac6	-0.32100505
253	0xbe8571f4	-0.26063502
254	0x3ddb5cf6	0.1071109
255	0xbdaec553	-0.0853373

conv1.bias f4 [32]
0	0xbd9dc3cf	-0.07703363
1	0x3e45443b	0.19264309
2	0xbd25d14f	-0.040482815
3	0x3e67596c	0.22592705
4	0x3d87f122	0.06637789
5	0x3ec43cad	0.38327542
6	0x3e89ec11	0.26937917
7	0x3de25474	0.110512644
8	0x3cf41c9e	0.029798802
9	0xbc8b361a	-0.016993571
10	0xbcaff516	-0.02147917
11	0x379a39c2	1.8385126e-05
12	0x3e856a44	0.26057637
13	0x3ec03493	0.3754011
14	0x3aaf3318	0.0013366668
15	0xbd74778e	-0.05968433
16	0x3eab3659	0.334399
17	0x3ed26330	0.410913
18	0x3a456222	0.00075295765
19	0xbd9c6432	-0.07636298
20	0x3e6dc271	0.23218705
21	0x3aa79f64	0.0012788591
22	0x3e7eb506	0.24873742
23	0x3ae263a1	0.0017272123
24	0x3d810254	0.06299272
25	0x3e3a2024	0.18176323
26	0x3e56051a	0.20900384
27	0x3ed1b547	0.40958616
28	0x3e15b3c9	0.14619364
29	0x3eaeed0a	0.3416522
30	0x3e0523b9	0.13001908
31	0x39fa0dc2	0.00047693966

conv2.weight f4 [64, 32, 3, 3]
0	0xbc0a892b	-0.008455555
1	0xbd95b762	-0.07310368
2	0x3da48a1f	0.08034157
3	0xbd7309cc	-0.059335515
4	0x3cbe837d	0.023256058
5	0x3daa04a7	0.083016686
6	0x3d2a73ce	0.041614346
7	0x3a868169	0.0010261956
8	0x3dc6d969	0.097094364
9	0x3d9d9737	0.076948576
10	0xbcecc139	-0.02890073
11	0xbe2cf9f2	-0.16892222
12	0x3da62ecc	0.081143945
13	0xbcaa4a6e	-0.020787444
14	0xbe585221	-0.2112508
15	0xba232d78	-0.0006224732
16	0x3b89e0eb	0.0042077205
17	0xbdfd91ef	-0.1238135
18	0xbd7544ee	-0.05988019
19	0xbd8e0e48	-0.06936318
20	0x3dca926e	0.098912105
21	0xbd1d575e	-0.038413398
22	0xbd43c713	-0.047797274
23	0x3d98cef5	0.07461349
24	0xbda60d15	-0.08107964
25	0xbc4ac321	-0.012375624
26	0x3d3876c2	0.04503513
27	0xbb85e043	-0.004085572
28	0xbd64c239	-0.055849288
29	0x3c9d2efc	0.019187443
30	0x3d62b1a0	0.055345178
31	0x3ba29d4e	0.0049626
32	0xbd0dfc54	-0.034664467
33	0xbcd701a3	-0.026245898
34	0x3c76d635	0.015065719
35	0xbdcb1335	-0.09915773
36	0xbce1088c	-0.027469896
37	0xbd9b8f22	-0.0759566
38	0x3d080ca8	0.033215195
39	0x3c8ac1f2	0.016938183
40	0x3d150d71	0.03638977
41	0x3d9cdab7	0.07658904
42	0xbdabce9c	-0.08389017
43	0x3d821b95	0.06352917
44	0x3dceafc4	0.100921184
45	0x3d1f33f4	0.038867906
46	0x3db1f100	0.08688545
47	0x3db67e92	0.0891086
48	0x3abfe1e8	0.0014639469
49	0x3cdeed42	0.027212743
50	0x3dba3ca7	0.090936
51	0x3ce4476a	0.027866084
52	0x3d740d03	0.05958272
53	0x3cd0b90a	0.025478859
54	0x3d3e795a	0.04650245
55	0x3d9c71dd	0.07638905
56	0xbdd32daa	-0.10311444
57	0x3ce3938c	0.027780317
58	0x3d9fa948	0.0779596
59	0xbdec00b3	-0.11523571
60	0x3db19110	0.086702466
61	0x3d83d9a0	0.06437993
62	0xbd888dc5	-0.066676654
63	0xbd073f76	-0.033019505
64	0xbc4bca8c	-0.012438428
65	0xbe833740	-0.2562809
66	0xbcb349b8	-0.021885738
67	0xbdb4fca2	-0.088372484
68	0xbe22429a	-0.15845719
69	0x3cbe8db6	0.023260932
70	0xbe28c412	-0.16481045
71	0xbe3dbdcb	-0.18529432
72	0xbce736da	-0.028224397
73	0xbd8de05d	-0.069275595
74	0x3e0757ab	0.13217036
75	0xbd8530cb	-0.06503447
76	0xba4644d8	-0.0007563359
77	0x3daee3e1	0.08539558
78	0xbcdeb57f	-0.027186153
79	0x3d47a867	0.048744585
80	0x3de06d52	0.10958351
81	0xbd4c32fc	-0.04985331
82	0xbcedc377	-0.029023869
83	0x3daf8253	0.08569779
84	0xbd195fa1	-0.037444714
85	0xbce66361	-0.02812356
86	0x3d13d216	0.036089025
87	0xbd74865f	-0.05969846
88	0x3c7b89fd	0.015352723
89	0x3d882fe8	0.066497624
90	0x3cc271f3	0.023735976
91	0xbdb361e0	-0.087589025
92	0xbd0bff02	-0.03417874
93	0xbd41ce1e	-0.04731571
94	0xbdfecabb	-0.124410115
95	0xbcca32f4	-0.0246825
96	0xbc8b1862	-0.0169794
97	0xbd992fdc	-0.074798316
98	0xbc7262fd	-0.014794108
99	0xbde537e3	-0.111923
100	0xbe1b99f4	-0.15195447
101	0xbd2619df	-0.040552016
102	0xbcb7ef21	-0.022452893
103	0xbd81dfc7	-0.0634151
104	0x3c6ee463	0.014580819
105	0xbd66cac5	-0.05634572
106	0xbcb92e37	-0.022605045
107	0xbdbad0dc	-0.09121868
108	0xbca3f71b	-0.02001529
109	0xbd3ae964	-0.045632735
110	0x3bea8e52	0.007158079
111	0xbd835393	-0.06412425
112	0xba0e46b2	-0.00054274045
113	0x3d8c175b	0.06840392
114	0xbd293d61	-0.0413183
115	0xbc841065	-0.016121099
116	0x3d4f25d2	0.050573178
117	0x3d87536d	0.06607709
118	0x3d9e30bc	0.07724139
119	0xbe1daf50	-0.15398908
120	0x3cf67289	0.030083911
121	0xbc6fe7f5	-0.014642705
122	0xbe4fcda0	-0.20293283
123	0x3d36b980	0.0446105
124	0xbdac59bf	-0.08415555
125	0xbdff10f9	-0.12454409
126	0xbd616ff0	-0.055038393
127	0xbcd953ad	-0.026529158
128	0x3e2975b2	0.16548803
129	0xbd90562b	-0.07047685
130	0xbcab2e5d	-0.020896131
131	0x3e1d99af	0.15390657
132	0xbb3d85e2	-0.0028918912
133	0x3ba83cfe	0.005134224
134	0x3e0558a9	0.13022102
135	0xbcd4b14e	-0.025963452
136	0xbb69151e	-0.0035565565
137	0x3d34541e	0.044025533
138	0xbd52f659	-0.051504467
139	0xbd04cccc	-0.032421872
140	0x3d860adc	0.0654504
141	0xbcdba322	-0.026811186
142	0x3d0a2a06	0.033731483
143	0x3d2dbcd6	0.042416416
144	0xbd2abdcb	-0.041684907
145	0x3d678866	0.056526564
146	0x3d5588d8	0.052132457
147	0xbc79cddf	-0.015246837
148	0x3c5dcb75	0.0135372775
149	0xbcbcd5a1	-0.023051085
150	0x3d456d00	0.048199654
151	0x3d84a8c4	0.06477502
152	0xbd7a6803	-0.06113435
153	0x3d1d5c3a	0.038418032
154	0x3dc98173	0.098391436
155	0x3cd1e474	0.02562163
156	0x3da8901a	0.0823061
157	0x3dba7118	0.09103602
158	0xbcd0e47f	-0.02549958
159	0x3d1e7902	0.03868962
160	0x3cd48259	0.02594106
161	0xbd41faf4	-0.04735847
162	0xbb4e9987	-0.0031524615
163	0xbd43781a	-0.04772196
164	0xbd371739	-0.04469988
165	0xbd38e2c9	-0.045138154
166	0xbc541cb3	-0.012946296
167	0xbca169c5	-0.019703755
168	0xbd4f9d58	-0.050687164
169	0x3c260653	0.010133344
170	0xbd15e118	-0.03659162
171	0x3d2cad64	0.042157546
172	0xbda0c5ce	-0.07850228
173	0x3e0d7630	0.13814616
174	0xbd002bf9	-0.031291936
175	0x3d17dcac	0.037075683
176	0x3df1e78b	0.118117414
177	0xbd8ad34c	-0.06778583
178	0x3d904b27	0.07045584
179	0x3d8a560e	0.06754695
180	0x3ce960ea	0.028488595
181	0xbd5876f4	-0.052847818
182	0xbdc65ec4	-0.09686044
183	0x3d85297b	0.065020524
184	0xbd086fa1	-0.033309583
185	0xbe6704c7	-0.22560416
186	0xbce6646d	-0.028124059
187	0xbd82b32e	-0.06381832
188	0xbdfcbe86	-0.12341027
189	0xbd3c9e11	-0.04604918
190	0xbd425510	-0.047444403
191	0x3dbd7fca	0.092528895
192	0xbd8b1be5	-0.0679243
193	0xbd18018b	-0.037110846
194	0x3de03244	0.109470874
195	0xbd0122f6	-0.031527482
196	0xbc518fff	-0.012790679
197	0x3d9d7727	0.07688742
198	0x3cf4ab04	0.029866703
199	0x3a5b837e	0.0008373781
200	0xbe05cb76	-0.13065895
201	0x3d82f792	0.063948765
202	0xbd705f15	-0.058684427
203	0xbe0eb444	-0.13935953
204	0x3a68550f	0.00088627724
205	0xbd0760e3	-0.033051383
206	0xbde9c269	-0.11414034
207	0x3ce81998	0.028332517
208	0xbd83fea4	-0.06445053
209	0x3bc857ef	0.006113998
210	0xbd19eb5a	-0.037577964
211	0xbdb9d13d	-0.09073112
212	0x3d21d1fd	0.0395069
213	0xbd1bc2b0	-0.038027465
214	0xbd24e041	-0.040252928
215	0x3d991bb2	0.074759856
216	0xbd06be76	-0.03289648
217	0xbd51c5c1	-0.051213983
218	0x3dcdfb6e	0.10057722
219	0x3caf099b	0.021366885
220	0xbd809e8e	-0.06280242
221	0x3dfcf3c3	0.12351181
222	0xbd8dbab3	-0.06920376
223	0x3d71a68d	0.058996726
224	0x3daed121	0.08535982
225	0xbc8dcd74	-0.017309882
226	0xbd8d3f56	-0.06896846
227	0x3df5fc7e	0.1201105
228	0x3d14d0b2	0.03633184
229	0x3d191b1c	0.03737937
230	0x3df1fb80	0.11815548
231	0xbd2b35b8	-0.041799277
232	0xbd0b8fd5	-0.034072716
233	0x3da4e2fa	0.08051105
234	0x3c87b3ec	0.016565286
235	0xbd7d4719	-0.061835382
236	0x3d9da1a3	0.076968454
237	0xbcd82ce7	-0.026388599
238	0xbce03ab6	-0.027371746
239	0x3dc44065	0.09582595
240	0xbd81fe3c	-0.063473195
241	0x3d6259b6	0.055261336
242	0x3cd31dec	0.025771104
243	0x3cd60fdc	0.02613061
244	0x3ddfdbf1	0.10930622
245	0xbd821de5	-0.06353358
246	0x3b71b205	0.003687979
247	0x3cc7a7f5	0.02437208
248	0xbd5ae162	-0.053437598
249	0x3b9c220f	0.0047648023
250	0x3d0ccb37	0.03437349
251	0xbd5ce12b	-0.053925674
252	0xbd0ad4af	-0.033894237
253	0xbd003bb0	-0.031306922
254	0x3cb96da8	0.022635296
255	0xba9f78df	-0.001216676

conv2.bias f4 [64]
0	0x3c6a2544	0.014291111
1	0xbd2d3dcd	-0.042295266
2	0xbceda0b5	-0.029007295
3	0xbc97f9c8	-0.018551722
4	0x3d00b290	0.03142029
5	0xbd45ac7d	-0.0482602
6	0x3c856d2d	0.01628741
7	0x3c4e66c5	0.012597744
8	0xbd47df7f	-0.048797127
9	0xbc7544db	-0.01497003
10	0xbcb19d2b	-0.021681389
11	0xbad95f2f	-0.0016584153
12	0xbd3debc1	-0.04636741
13	0x3d103b40	0.035212755
14	0xbc60a3f1	-0.013710962
15	0xbd6334c3	-0.05547024
16	0xbd04b891	-0.03240258
17	0xbd177ee1	-0.036986236
18	0xbd64b75c	-0.055838928
19	0xbb7b0a6c	-0.0038305772
20	0x3d618492	0.05505807
21	0xbbf64d11	-0.0075165113
22	0x3d8efe0d	0.0698205
23	0x3b516e3f	0.003195658
24	0x3d83969f	0.06425213
25	0xbd1bd5a4	-0.03804554
26	0x3c7af03d	0.015316066
27	0x3d9f3e8f	0.07775604
28	0x3d855f4a	0.065123156
29	0x3d374bc9	0.04475001
30	0x3d05be80	0.032652378
31	0x3d8d232f	0.06891476
32	0x3d1b9ce4	0.03799142
33	0xbd105541	-0.035237554
34	0x3d5644a2	0.052311547
35	0x3c087f14	0.008331079
36	0xbcb1fb0c	-0.021726154
37	0x3c9a588c	0.01884105
38	0xbcbb38a2	-0.022854153
39	0x3bd14596	0.006386469
40	0xbd028e97	-0.031874266
41	0x3d2c7b1d	0.042109597
42	0xbb016132	-0.001974177
43	0xbd12dc9c	-0.03585492
44	0xbd2371a3	-0.039903294
45	0xbc5c677f	-0.01345241
46	0xbd8fc1e2	-0.07019402
47	0x3c0221ac	0.007942598
48	0x3b81fce5	0.003966915
49	0x3ba7daee	0.005122534
50	0x3d2afccb	0.04174499
51	0x3d28b316	0.041186415
52	0x3d14a65b	0.03629146
53	0xbce3e58b	-0.027819416
54	0xbcaec57d	-0.021334404
55	0x3b044af8	0.0020186286
56	0x3be22d9f	0.006902411
57	0xbcf52cfd	-0.029928679
58	0xbd79a21e	-0.060945623
59	0xbd3bbb13	-0.045832705
60	0x3d392267	0.045198824
61	0x398fff62	0.0002746536
62	0xbd024c4e	-0.03181105
63	0x3d499e6e	0.049223356

conv3.weight f4 [128, 64, 3, 3]
0	0xbcd9a100	-0.026566029
1	0x3b4cbfa3	0.0031242154
2	0x3cc3b735	0.02389107
3	0x3c0c45d7	0.008561573
4	0xbc1f0f8c	-0.0097082965
5	0xbd2142cb	-0.03937034
6	0xbcb76642	-0.022387628
7	0x3d1746f0	0.036932886
8	0x3cf9f029	0.030510025
9	0x3c3d2a0c	0.011545669
10	0xbd2ab18c	-0.04167323
11	0x3c4a325f	0.012341111
12	0xbd00cf5d	-0.031447757
13	0xbbaa2f1b	-0.0051936037
14	0x3cc595b9	0.024119245
15	0xbd0a48e2	-0.033760913
16	0xbd15eb78	-0.036601514
17	0xbb91c96c	-0.00444906
18	0xbc480260	-0.0122075975
19	0x3c7f4915	0.015581389
20	0xbd1c6e9c	-0.038191423
21	0x3c3ec044	0.011642519
22	0x3c964f43	0.018348342
23	0xbcb28045	-0.02178968
24	0x3be65b34	0.007029915
25	0xbcef87a9	-0.029239492
26	0x3bf85930	0.0075789914
27	0xbd0b726e	-0.034044676
28	0xbd2f22de	-0.04275786
29	0xbd082a61	-0.03324354
30	0xbb110e79	-0.002213387
31	0xbc2e83f2	-0.010651575
32	0xbc830b4d	-0.0159966
33	0xbcfa28d5	-0.030537048
34	0x3cc8f19d	0.024529273
35	0xbacf7b63	-0.0015829619
36	0xbbf72177	-0.007541831
37	0xbd0ea4fb	-0.034825306
38	0x3c98c4b0	0.018648475
39	0xbd276e6c	-0.04087679
40	0xbb1c4421	-0.002384432
41	0xbd17f1d3	-0.037095856
42	0x3cdddb0f	0.027081994
43	0xbcef84d7	-0.029238148
44	0x3d17f7f5	0.037101705
45	0xbce3da18	-0.027813956
46	0xbcad10f8	-0.021126255
47	0x3d1db293	0.03850038
48	0xbbe3a916	-0.006947647
49	0xbd25c300	-0.04046917
50	0x3ca5a161	0.020218553
51	0xbc523a08	-0.012831219
52	0x3b0f11b7	0.0021830627
53	0x3d0b725f	0.03404462
54	0x3c617078	0.013759725
55	0xbc44b9ac	-0.012007158
56	0x3c2d1e15	0.010566254
57	0x3c5e336f	0.013562067
58	0xbcd5ed08	-0.026114002
59	0xbd0f26be	-0.034949057
60	0xbd29006d	-0.04126017
61	0x3c9020a9	0.017593699
62	0xbd1c9960	-0.038232207
63	0xbc36f90b	-0.011167775
64	0xbd1776a3	-0.036978375
65	0xbcbf090e	-0.023319747
66	0xbbb8dfab	-0.0056418977
67	0xbd262729	-0.04056469
68	0xbc2fc80a	-0.010728845
69	0xbcde44b6	-0.027132373
70	0xbd293ab5	-0.041315753
71	0xbd0028d3	-0.031288933
72	0x3cd3f4b7	0.025873525
73	0xbd1058c6	-0.03524091
74	0x3cf15598	0.02945976
75	0xbb3677ef	-0.0027842482
76	0x3d19228d	0.037386466
77	0xbd21eb7e	-0.039531223
78	0xbc693e12	-0.01423599
79	0xbba09577	-0.00490063
80	0xbc71eebe	-0.014766393
81	0x3d0e7092	0.034775324
82	0x3c9c1351	0.01905218
83	0x3c442e15	0.011973877
84	0xbaa5e075	-0.0012655394
85	0xbc75e929	-0.015009203
86	0x3aa04ed9	0.001223053
87	0xbd1eed55	-0.038800556
88	0xb97e2e49	-0.0002424057
89	0xbd010143	-0.031495344
90	0xbd163676	-0.03667303
91	0x3d0a93fe	0.033832543
92	0x3b8402c0	0.004028648
93	0x3cd03f6b	0.025420865
94	0xbc9221f2	-0.017838452
95	0xbd064d85	-0.032788772
96	0x3d25d0da	0.04048238
97	0xbc0755bb	-0.008260186
98	0x3c965aa3	0.018353766
99	0xbd1d764f	-0.038442906
100	0xbc117a6b	-0.008879284
101	0xbbc07476	-0.005873258
102	0xbbddadeb	-0.0067651174
103	0x3bccc516	0.0062490804
104	0x3b52e06b	0.003217722
105	0xbccb0f3b	-0.024787536
106	0x3d024732	0.03180618
107	0xbd0ca748	-0.03433922
108	0xbc15b8e6	-0.0091383215
109	0x3d1746eb	0.036932867
110	0x3d1d6657	0.038427677
111	0xbcaabc43	-0.020841723
112	0xbcced0b6	-0.025246006
113	0x3cc6c263	0.024262613
114	0xbd0f4d76	-0.034985982
115	0xbc80b741	-0.015712382
116	0x3b05be1c	0.0020407503
117	0x3ccbb355	0.024865786
118	0xbd0cadad	-0.034345318
119	0xbce7c892	-0.028293882
120	0xbb826282	-0.003979028
121	0x3ce24d60	0.027624786
122	0xbc577f0c	-0.013152849
123	0xba8b13e7	-0.001061079
124	0xbd071170	-0.032975614
125	0x3af67c63	0.0018805381
126	0x3c60eda0	0.013728529
127	0xbcf4e120	-0.029892504
128	0x3cfe2dbb	0.031027665
129	0x3bccccab	0.0062499843
130	0x3b5b965f	0.0033506376
131	0x3c53c22f	0.012924715
132	0x3c640238	0.013916545
133	0xbce8beba	-0.028411258
134	0xbd0afd28	-0.033932835
135	0xbd2c5a66	-0.0420784
136	0x3d0254fd	0.031819332
137	0x3c2bbecc	0.010482501
138	0x3cb80aa8	0.022466019
139	0x3cd52921	0.026020588
140	0xbd08d815	-0.033409197
141	0x3cc576d7	0.024104519
142	0xbc968427	-0.018373562
143	0xbd0882e9	-0.03332797
144	0xbceeaabd	-0.029134149
145	0x3ce6584b	0.028118273
146	0xbd1ed727	-0.038779404
147	0x3cc46ef0	0.02397868
148	0x3d0f9862	0.035057433
149	0xbc371cfe	-0.011176346
150	0xbcdedb57	-0.027204199
151	0x3d1184d1	0.035527054
152	0x3c8b0ec1	0.016974809
153	0xbd258f11	-0.040419642
154	0xbbf03cfa	-0.0073314877
155	0x3b402906	0.0029321327
156	0x3cb3c75a	0.021945644
157	0xbbf83a96	-0.0075753434
158	0xbc893c31	-0.016752334
159	0xbd16eeca	-0.03684882
160	0xbb01fde8	-0.0019835178
161	0x3d161b01	0.036646847
162	0x3cd90df6	0.026495915
163	0xbc89b0b3	-0.01680789
164	0xbbb89865	-0.005633401
165	0xbc659c38	-0.014014296
166	0xbc2f3c01	-0.010695458
167	0xbcf83fe1	-0.030303897
168	0x3c6a006a	0.014282325
169	0xbd1b06ee	-0.037848406
170	0x3c87b6bd	0.016566629
171	0xbcd15993	-0.025555408
172	0xbc2dac93	-0.010600227
173	0x3ba4bc04	0.005027296
174	0x3d013211	0.031541888
175	0x3d1e9d2a	0.038724102
176	0xbd1e86cf	-0.038702782
177	0xbc469dce	-0.0121225845
178	0xbd283aec	-0.041071817
179	0xbc9231fd	-0.017846102
180	0xbc988d1a	-0.01862197
181	0x3c8f793b	0.017513862
182	0x3cba4087	0.022735847
183	0xbce6b9af	-0.028164713
184	0x3cc70fde	0.024299558
185	0x3c40409c	0.011734154
186	0xbc0c988c	-0.008581292
187	0xbd272521	-0.040806893
188	0xbd08d509	-0.03340629
189	0xbc43bdfc	-0.011947151
190	0x3d18e45e	0.037327163
191	0x3d02d924	0.031945363
192	0x3c8c1dbe	0.017104026
193	0xba698c78	-0.0008909176
194	0xba85ea2c	-0.0010216883
195	0xbd18aed0	-0.03727609
196	0x3cc484f2	0.023989175
197	0xbd2f0135	-0.04272576
198	0x3c0fca61	0.008776278
199	0x3cd3e2cb	0.02586498
200	0x3cc92410	0.024553329
201	0xbbd2d7c9	-0.006434415
202	0x3ce75925	0.02824075
203	0xbc65292f	-0.01398687
204	0xbd0da75f	-0.034583446
205	0xbcd012f2	-0.025399659
206	0x3cb08ddf	0.021552024
207	0x3af0a3ab	0.0018359324
208	0xbcaf4882	-0.02139688
209	0x3c58e0f1	0.013237224
210	0xbd1ea4c3	-0.038731348
211	0x3cc6fe83	0.024291283
212	0xbcbb334f	-0.022851614
213	0x3be0974a	0.0068539726
214	0x3bae5419	0.005320084
215	0x3d0ee70d	0.034888316
216	0xbc5c3bdb	-0.013442005
217	0xbd2b3132	-0.041794963
218	0x3bc8bddf	0.00612615
219	0x3d1aa930	0.037759006
220	0x3ca4952b	0.02009066
221	0x3c33de3b	0.010978277
222	0xbd0e88bb	-0.034798365
223	0xbc21000a	-0.0098266695
224	0xbcd311e7	-0.025765372
225	0x3bea06d0	0.0071419254
226	0x3cd65659	0.02616422
227	0x3cf265aa	0.029589493
228	0xbce127d7	-0.027484817
229	0xbcd035d1	-0.025416287
230	0x3c381b3d	0.011236963
231	0x3ceb1467	0.028696252
232	0x3cc751f7	0.024331076
233	0xbc8cf6b5	-0.017207483
234	0x3d12fd08	0.03588584
235	0xbd20b567	-0.0392355
236	0x3ce9a89b	0.02852278
237	0xbd301374	-0.042987302
238	0xbd227bf9	-0.03966901
239	0x3c44680c	0.011987697
240	0x3c90571e	0.017619666
241	0x3d225bdd	0.03963839
242	0xbcaa03a9	-0.020753698
243	0x3a95a2a9	0.0011416274
244	0x3ce9727c	0.028496973
245	0x3c76db41	0.015066923
246	0xbd25c0a1	-0.04046691
247	0xbc3e017c	-0.011597034
248	0xbcdffb34	-0.027341463
249	0xbcd29cd0	-0.02570954
250	0xbc0508de	-0.00811979
251	0x3cfd374f	0.030910162
252	0xbd06a969	-0.032876406
253	0x3c23a3f2	0.009987818
254	0xbd083945	-0.03325774
255	0x3a7f0d3e	0.0009729451

conv3.bias f4 [128]
0	0xbcf82085	-0.030288944
1	0xbb4be4d6	-0.0031111739
2	0xbcd4033a	-0.025880445
3	0xbd0742f9	-0.033022854
4	0x3d00b7c5	0.031425256
5	0xbcade989	-0.021229522
6	0x3c648330	0.013947293
7	0x39edbe6a	0.00045346032
8	0x3ce3a1be	0.027787086
9	0xbcf71308	-0.030160442
10	0xb93c0d39	-0.00017934003
11	0xbd35de99	-0.04440174
12	0xbcc602fb	-0.024171343
13	0xbb965c4f	-0.0045886408
14	0xbc9a1434	-0.018808462
15	0xbc624730	-0.013810918
16	0xbc008a05	-0.007845406
17	0xbce75a70	-0.028241366
18	0xbcb2a140	-0.021805406
19	0xbd07c537	-0.033147063
20	0xbc8762d1	-0.016526612
21	0xbd208a99	-0.039194677
22	0xbd02da15	-0.03194626
23	0xbb179bd7	-0.002313366
24	0x3cb1544b	0.02164664
25	0xbcfd32ee	-0.030908074
26	0x3d20119e	0.0390793
27	0x3a860aa4	0.001022656
28	0xbd28dc79	-0.041225884
29	0x3cce83e9	0.025209384
30	0x3ca80266	0.020508956
31	0xbbbf0dd8	-0.0058305077
32	0x3cf0aeae	0.029380169
33	0x3bce8756	0.0063027544
34	0xbca14307	-0.019685281
35	0xbbccca00	-0.006249666
36	0xbc921a8e	-0.017834928
37	0xbb17401c	-0.0023078984
38	0xbd3836a1	-0.044973973
39	0xbd0e45b2	-0.034734435
40	0x3c933688	0.017970338
41	0xbd3f25c6	-0.046666883
42	0x3d208a23	0.039194237
43	0xbcf0009a	-0.029297162
44	0x3ca2f39f	0.019891558
45	0x3ad20c63	0.001602542
46	0xbcd48af7	-0.02594517
47	0x3b5022b8	0.0031758975
48	0xbc1415ff	-0.009038447
49	0x3cd4cfc1	0.025977971
50	0x3c68c656	0.014207443
51	0x3c2917ec	0.010320645
52	0x3c8bae1c	0.017050795
53	0x3d1670e9	0.036728773
54	0x3cf0fd5e	0.02941769
55	0xbcb738d3	-0.022365963
56	0x3cf6af1a	0.030112792
57	0xba8919db	-0.0010459976
58	0x3d05dc51	0.032680813
59	0x3cdc38d9	0.026882576
60	0xba3e7bf6	-0.00072663964
61	0xbc90a4eb	-0.017656764
62	0x3c18c6de	0.009324757
63	0xbb90003e	-0.00439456
64	0xbb289740	-0.0025724918
65	0x3c80d550	0.015726715
66	0xbc68f92c	-0.014219563
67	0x3a8f05d7	0.0010911775
68	0xbcb8fc6b	-0.0225813
69	0x3c8839ad	0.016629064
70	0x3d3644b0	0.0444991
71	0xbd1c2599	-0.038121793
72	0x3d260e76	0.040541135
73	0x3c76784f	0.015043332
74	0x3d182d27	0.037152436
75	0x3bc2eb4c	0.0059484597
76	0x3c006331	0.007836149
77	0x3ca51673	0.020152306
78	0x3c373291	0.01118149
79	0x3d13a720	0.036048055
80	0xbca923d2	-0.020646963
81	0x3c9d3f4f	0.019195227
82	0x3c190737	0.009340099
83	0xbd227306	-0.039660476
84	0xbcc2835d	-0.02374428
85	0x3d1f9280	0.038958073
86	0xbc5f2d8a	-0.013621697
87	0xbcd0150a	-0.025400657
88	0x3be570eb	0.0070019863
89	0xbc488db3	-0.012240815
90	0x3d15a9ad	0.03653877
91	0xbadc1b76	-0.0016792852
92	0xbd007d47	-0.031369474
93	0xbc96f315	-0.018426457
94	0x3c5e275d	0.01355919
95	0xbd45b349	-0.048266683
96	0x3d43d2a0	0.04780829
97	0xbd3244e6	-0.043522738
98	0xbd3399ad	-0.04384773
99	0xbc745e8a	-0.014915118
100	0x3c816239	0.015793907
101	0x3cd8b84a	0.026455063
102	0xbcecf532	-0.028925512
103	0x3c082778	0.008310191
104	0x3cd2c0dd	0.02572673
105	0x3ccceddf	0.02501577
106	0x3cb90580	0.02258563
107	0x3cadc9cb	0.021214386
108	0xba6723a4	-0.00088172616
109	0x3c7e1d0c	0.015509855
110	0xbc997013	-0.018730199
111	0xbc1639d3	-0.00916906
112	0x3c7b83b6	0.015351227
113	0xbd13548d	-0.035969306
114	0xbbd7308b	-0.006567066
115	0xbc8c91a1	-0.017159285
116	0x3ca46436	0.020067316
117	0x3abd4a8a	0.001444177
118	0xbd299c33	-0.04140873
119	0xbc47e8e6	-0.012201523
120	0xbcd46e24	-0.025931425
121	0xbd061142	-0.032731302
122	0xbcb32cba	-0.021871913
123	0xbcabe24e	-0.020981934
124	0xbc2ad042	-0.010425629
125	0xbc6ae728	-0.0143373385
126	0xba38f92f	-0.0007056174
127	0x3bf65f7b	0.0075187064

fc1.weight f4 [10, 128]
0	0xbb489536	-0.0030606515
1	0xbce157d3	-0.027507698
2	0x3d6748dc	0.05646597
3	0xbdf4d53a	-0.11954732
4	0x3d81e370	0.063422084
5	0x3c72dc8a	0.014823088
6	0xbd3241f8	-0.043519944
7	0x3d761894	0.060082033
8	0x3d9ef145	0.07760862
9	0xbd4a3108	-0.049363166
10	0x3d9012f8	0.07034868
11	0x3d75c1c7	0.059999254
12	0x3b9b0889	0.004731242
13	0xbc0f0eb6	-0.008731535
14	0xbd5d6c96	-0.054058634
15	0x3d8e42d8	0.06946343
16	0xbd2747a6	-0.040839814
17	0x3ca8a2f7	0.02058552
18	0xbd099046	-0.033584855
19	0x3df17dee	0.11791597
20	0x3dd40cf5	0.10354034
21	0x3d17b5dd	0.037038673
22	0xbd9a935b	-0.07547637
23	0xbde34891	-0.11097825
24	0x3d61a0a7	0.05508485
25	0xbd9804d3	-0.07422795
26	0x3d811383	0.0630255
27	0xbcb76fd8	-0.022392198
28	0xbbd44a13	-0.006478557
29	0xbb6d95b3	-0.0036252558
30	0x3d97ff1b	0.074217044
31	0xbdb278e4	-0.08714464
32	0xbdb3a1df	-0.08771109
33	0xbd8e4c22	-0.06948115
34	0x3d9ce5f4	0.076610476
35	0xbdebfdaa	-0.11522992
36	0xbe0dcba0	-0.13847208
37	0x3d5c88a4	0.05384125
38	0xbd1caae6	-0.03824892
39	0x3dfa8eda	0.12234278
40	0xbd02a15b	-0.03189216
41	0xbddb82b7	-0.10718291
42	0x3dea2cf1	0.11434353
43	0x3d26df3c	0.040740237
44	0x3d94edc0	0.0727191
45	0xbce6c710	-0.028171092
46	0x3d29b0bc	0.041428313
47	0xbd8305d4	-0.06397596
48	0xbe0894b5	-0.13337977
49	0xbe1e28d1	-0.15445258
50	0xbd37ea19	-0.044900987
51	0x3d92967d	0.071576096
52	0x3e067865	0.13131864
53	0xbd8110b5	-0.06302015
54	0x3ddd2662	0.107983366
55	0xbe11ac6f	-0.14225934
56	0xbdb38e69	-0.08767397
57	0xbe112cac	-0.14177197
58	0xbe217339	-0.1576661
59	0xbd9e7c66	-0.07738571
60	0xbe115015	-0.14190705
61	0x3dba1cbb	0.09087511
62	0xbba40242	-0.005005152
63	0xbc9003e6	-0.017579984
64	0xbbc93b08	-0.0061410703
65	0x3cae4939	0.02127515
66	0xbc5316c0	-0.012883842
67	0x3d0a2468	0.033726126
68	0xbdf3e032	-0.11907996
69	0x3d3b9756	0.045798622
70	0xbe05850b	-0.13039033
71	0xbcbeddba	-0.023299087
72	0xbe6f4540	-0.2336626
73	0xbda30bdf	-0.079612486
74	0xbe2f230d	-0.17103215
75	0xbdf34184	-0.118777305
76	0xbe0c87b1	-0.13723637
77	0xbd542e29	-0.051801834
78	0xbdcfeae2	-0.10152222
79	0xbe300377	-0.17188822
80	0x3d87af80	0.06625271
81	0xbe0e86b9	-0.1391858
82	0x3da7f9e6	0.08201961
83	0xbe031eeb	-0.12804763
84	0xbe11c55e	-0.14235446
85	0xbdaee5d7	-0.08539932
86	0x3c9196b3	0.017772054
87	0x3d05ffb6	0.032714568
88	0xbdf6861e	-0.120372996
89	0xbcd870a5	-0.0264209
90	0xbe259f6c	-0.16174096
91	0xbe221e6d	-0.15831919
92	0xbd81953e	-0.06327294
93	0xbceddffc	-0.029037468
94	0x3d64114d	0.05568056
95	0x3d4a57ba	0.04940007
96	0xbce18a05	-0.027531633
97	0xbda947bc	-0.08265635
98	0xbd74986a	-0.059715666
99	0xbe11d9ec	-0.14243287
100	0x3d2bc500	0.04193592
101	0xbd3a9b0f	-0.04555803
102	0xbd29a784	-0.04141952
103	0xbda3d2f7	-0.07999223
104	0xbdb52627	-0.088451676
105	0x3db0da1a	0.086353496
106	0x3d8f51c3	0.06998017
107	0x3d8cbdbd	0.06872127
108	0xba949c29	-0.0011338043
109	0x3d126793	0.035743307
110	0xbd8e0dff	-0.06936263
111	0xbdb750b8	-0.08950943
112	0xbd988fc7	-0.07449298
113	0xbcce43ee	-0.025178876
114	0x3dc4c42c	0.09607729
115	0x3d639102	0.055558212
116	0x3dcee1a8	0.10101634
117	0xbd152045	-0.036407728
118	0x3cc8b091	0.024498256
119	0xbdf39b1d	-0.1189482
120	0x3dee98e7	0.116502576
121	0x3d26cf3b	0.040724974
122	0xbb6c08e1	-0.0036016034
123	0xbe1bb331	-0.15205075
124	0xbb7bf4a8	-0.0038445387
125	0x3d090b1c	0.03345786
126	0x3d9dbd05	0.07702068
127	0x3cc31538	0.023813829
128	0xbd6e8546	-0.05823257
129	0xbd43b2d3	-0.047777962
130	0xbdf0eb94	-0.11763683
131	0xbe0c0687	-0.13674365
132	0x3d60c3b1	0.054874126
133	0x3c9c0c13	0.019048726
134	0xbe3cfc4b	-0.18455617
135	0x3dc82e67	0.097744755
136	0xbb5e2a60	-0.003389977
137	0x3db39816	0.087692425
138	0xbd4b5fc3	-0.049651872
139	0xbe50b8c0	-0.20382977
140	0xbdbfd281	-0.09366322
141	0x3d70a96f	0.058755334
142	0x3e01d437	0.1267861
143	0xbd9596ac	-0.07304129
144	0xbe12bdbd	-0.14330192
145	0xbe7263fe	-0.23670956
146	0xbdf3924a	-0.11893137
147	0xbe1c0e7e	-0.15239903
148	0x3e1349a4	0.1438356
149	0xbdb0c366	-0.08631019
150	0x3d863367	0.06552773
151	0xbd860fd1	-0.065459855
152	0xbe0dfaf9	-0.1386527
153	0xbe3cc711	-0.18435313
154	0x3e0ac451	0.13551451
155	0xbb09d853	-0.002103348
156	0x3d9c79c5	0.07640413
157	0x3caa43b4	0.020784236
158	0x3d164e5e	0.03669583
159	0x3da5e096	0.08099477
160	0x3d4d6164	0.050141707
161	0xbdb807ad	-0.08985839
162	0xbdc046af	-0.09388482
163	0xbe03d53e	-0.12874314
164	0x3d8f2ae8	0.069906056
165	0xbe005111	-0.12530924
166	0xbe3bab96	-0.18327174
167	0xbbcfa993	-0.0063373535
168	0x3d8ed4e2	0.06974198
169	0xbe3d71cf	-0.18500446
170	0x3d9b7036	0.07589762
171	0xbc0ed31d	-0.0087173255
172	0xbdb6ec6a	-0.08931811
173	0x3db89e8a	0.09014614
174	0xbe174609	-0.1477281
175	0x3d2c1873	0.042015504
176	0x3d1161f0	0.03549379
177	0x3de34c5a	0.11098547
178	0x3dcf694f	0.10127508
179	0xbccd62fa	-0.02507161
180	0xbd901594	-0.07035366
181	0xbda8ab9c	-0.08235857
182	0xbdfcb12f	-0.123384826
183	0xbd29c10c	-0.04144387
184	0xbcd5f48d	-0.026117587
185	0x3d9070d3	0.070527695
186	0x3dd15ea0	0.102231264
187	0x3d6abb21	0.057307366
188	0xbe1c4acd	-0.15262909
189	0xbd4e18c4	-0.050316587
190	0x3d578d0d	0.05262475
191	0xbe3a13d7	-0.18171631
192	0x3dcb54c4	0.09928277
193	0xbcf9800b	-0.030456563
194	0x3da559f9	0.080738015
195	0x3bae5a1f	0.005320802
196	0x3d48f2b7	0.049059596
197	0x3dc26422	0.09491755
198	0xbe6dde1c	-0.23229259
199	0xbdfe1862	-0.124069944
200	0x3de92622	0.113842264
201	0xbd1ad29a	-0.0377985
202	0x3db4bc26	0.08824949
203	0xbdc80fe0	-0.09768653
204	0x3d51bf67	0.051207926
205	0x3cb8d549	0.02256264
206	0xbd4878ea	-0.048943438
207	0xbe49dac3	-0.19712357
208	0xbd95341f	-0.07285332
209	0x3b10a719	0.0022072254
210	0x3d45f010	0.048324645
211	0x3c7db10f	0.015484109
212	0x3d80b5fc	0.06284711
213	0x3d282285	0.041048545
214	0x3db017a3	0.08598258
215	0x3c4f2632	0.012643384
216	0x3d89bb3e	0.06725167
217	0xbe2a5d49	-0.16637148
218	0x3c918f9a	0.01776867
219	0x3cf1928f	0.02948883
220	0x3dec0723	0.11524799
221	0x3dad8baf	0.08473908
222	0x3db1abcb	0.08675345
223	0xbd55cdce	-0.052198224
224	0x3df9ca98	0.12196845
225	0x3d267c65	0.040645976
226	0xbcc6d761	-0.024272623
227	0x3d81d722	0.063398615
228	0xbcbf8a88	-0.023381487
229	0x3d01de2f	0.03170603
230	0x3d976808	0.07392889
231	0x3d8ee224	0.06976727
232	0xbdcc832e	-0.09985958
233	0xbe478433	-0.19484024
234	0xbe3187bd	-0.17336936
235	0xbb925309	-0.004465465
236	0xbc99fed3	-0.018798267
237	0x3dab60aa	0.083680466
238	0x3d8f773f	0.07005166
239	0xbe23ab94	-0.1598342
240	0x3dae221f	0.08502602
241	0x3c7757ac	0.015096586
242	0xbcaf17bb	-0.02137362
243	0xbe61f099	-0.22064437
244	0xbd9747fb	-0.07386776
245	0xbdeab9de	-0.114612326
246	0x3c20a62b	0.0098052425
247	0x3da2a65e	0.07941888
248	0xbdb04333	-0.08606567
249	0x3da49d01	0.080377586
250	0x3be1fdbe	0.0068967035
251	0x3caa8421	0.020814957
252	0x3d988030	0.07446325
253	0xbd6bdc67	-0.05758324
254	0xbe2faa3f	-0.17154787
255	0x3da8ce56	0.082424805

fc1.bias f4 [10]
0	0xbc9752d5	-0.018472115
1	0xbd14371f	-0.03618538
2	0x3d0fb0fa	0.035080887
3	0xbc662381	-0.014046551
4	0x3e0b7da1	0.13622142
5	0xbdf73df5	-0.12072364
6	0x3c2985b9	0.010346823
7	0x3d7b2045	0.06131007
8	0x3df7732d	0.12082515
9	0x3d1d3d83	0.03838874
